…
","iopub.status.idle":"2025-07-16T09:01:03.905452Z","shell.execute_reply.started":"2025-07-16T08:57:21.128458Z","shell.execute_reply":"2025-07-16T09:01:03.904426Z"}},"outputs":[{"name":"stdout","text":"Model Summary:\nModel: \"model\"\n_________________________________________________________________\n Layer (type)                Output Shape              Param #   \n=================================================================\n image_input (InputLayer)    [(None, 64, 256, 1)]      0         \n                                                                 \n conv2d (Conv2D)             (None, 64, 256, 32)       320       \n                                                                 \n max_pooling2d (MaxPooling2D  (None, 32, 128, 32)      0         \n )                                                               \n                                                                 \n batch_normalization (BatchN  (None, 32, 128, 32)      128       \n ormalization)                                                   \n                                                                 \n conv2d_1 (Conv2D)           (None, 32, 128, 64)       18496     \n                                                                 \n max_pooling2d_1 (MaxPooling  (None, 16, 64, 64)       0         \n 2D)                                                             \n                                                                 \n batch_normalization_1 (Batc  (None, 16, 64, 64)       256       \n hNormalization)                                                 \n                                                                 \n conv2d_2 (Conv2D)           (None, 16, 64, 128)       73856     \n                                                                 \n max_pooling2d_2 (MaxPooling  (None, 8, 32, 128)       0         \n 2D)                                                             \n                                                                 \n batch_normalization_2 (Batc  (None, 8, 32, 128)       512       \n hNormalization)                                                 \n                                                                 \n conv2d_3 (Conv2D)           (None, 8, 32, 256)        295168    \n                                                                 \n max_pooling2d_3 (MaxPooling  (None, 4, 16, 256)       0         \n 2D)                                                             \n                                                                 \n batch_normalization_3 (Batc  (None, 4, 16, 256)       1024      \n hNormalization)                                                 \n                                                                 \n reshape (Reshape)           (None, 16, 1024)          0         \n                                                                 \n dense (Dense)               (None, 16, 64)            65600     \n                                                                 \n bidirectional (Bidirectiona  (None, 16, 256)          197632    \n l)                                                              \n                                                                 \n bidirectional_1 (Bidirectio  (None, 16, 128)          164352    \n nal)                                                            \n                                                                 \n output (Dense)              (None, 16, 46)            5934      \n                                                                 \n=================================================================\nTotal params: 823,278\nTrainable params: 822,318\nNon-trainable params: 960\n_________________________________________________________________\nLoaded 0 samples, skipped 62870 due to errors.\nTamil Handwriting Recognition Model Ready!\n","output_type":"strea
…
